lc_models/MultiOmicsAutoencoder/trained_encoder/pytorch_model.bin (torch, 4571 bytes, 2 tensors)

layers.0.lin_l.weight f4 [1, 17]
0	0x3d03c1d6	0.03216728
1	0xbea76af2	-0.3269878
2	0x3d492e17	0.04911622
3	0x3e35d9dc	0.17758888
4	0x3f1c4fae	0.6105908
5	0x3e430396	0.19044337
6	0x3df8982f	0.12138402
7	0xbe836b7e	-0.25667948
8	0x3ee60797	0.44927666
9	0x3e53132d	0.20612784
10	0x3e8a5ea7	0.2702534
11	0x3dfebaa5	0.12437943
12	0x3e6801b4	0.226569
13	0x3f01f5b3	0.5076553
14	0x3f0528f1	0.52015597
15	0x3f2f87ef	0.68566793
16	0x3f33eaac	0.70279956

layers.0.lin_r.weight f4 [1, 17]
0	0x3e52a7c6	0.20571813
1	0x3e8de5ce	0.2771439
2	0xbee23534	-0.44181216
3	0xbef406fd	-0.47661582
4	0x3ee1a4c1	0.4407101
5	0x3e2c2f61	0.16814949
6	0x3f00afeb	0.5026843
7	0x3e4bdd1b	0.19908564
8	0xbebeeab3	-0.37288436
9	0xbcaf2a94	-0.021382608
10	0x3f02d00a	0.5109869
11	0xbe809304	-0.25112164
12	0xbd717039	-0.058944914
13	0x3e9a2ddf	0.30113122
14	0xbe1b4fb5	-0.15167125
15	0xbe22cecd	-0.158992
16	0x3e426ea0	0.18987513
