lc_models/MultiOmicsAutoencoder/trained_autoencoder/pytorch_model.bin (torch, 43263 bytes, 9 tensors)

encoder.layers.0.lin_l.weight f4 [1, 17]
0.03216728 -0.3269878 0.04911622 0.17758888 0.6105908 0.19044337 0.12138402 -0.25667948
0.44927666 0.20612784 0.2702534 0.12437943 0.226569 0.5076553 0.52015597 0.68566793
0.70279956
00000000: d6c1 033d f26a a7be 172e 493d dcd9 353e
00000010: ae4f 1c3f 9603 433e 2f98 f83d 7e6b 83be
00000020: 9707 e63e 2d13 533e a75e 8a3e a5ba fe3d
00000030: b401 683e b3f5 013f f128 053f ef87 2f3f
00000040: acea 333f

encoder.layers.0.lin_r.weight f4 [1, 17]
0.20571813 0.2771439 -0.44181216 -0.47661582 0.4407101 0.16814949 0.5026843 0.19908564
-0.37288436 -0.021382608 0.5109869 -0.25112164 -0.058944914 0.30113122 -0.15167125 -0.158992
0.18987513
00000000: c6a7 523e cee5 8d3e 3435 e2be fd06 f4be
00000010: c1a4 e13e 612f 2c3e ebaf 003f 1bdd 4b3e
00000020: b3ea bebe 942a afbc 0ad0 023f 0493 80be
00000030: 3970 71bd df2d 9a3e b54f 1bbe cdce 22be
00000040: a06e 423e

decoder.fc.weight f4 [17, 1]
-0.27413568 0.107007094 -0.4133332 0.79996467 -0.7744522 -0.8803055 -0.7333893 0.3811423
-0.028493194 -0.723794 0.4602555 0.13140717 0.4481173 -0.4583131 -0.4121769 0.86797863
-0.18165134
00000000: 835b 8cbe 8926 db3d 69a0 d3be 7cca 4c3f
00000010: 8042 46bf b45b 61bf 67bf 3bbf 1525 c33e
00000020: 8f6a e9bc 904a 39bf 9ca6 eb3e 9a8f 063e
00000030: a16f e53e 04a8 eabe da08 d3be d933 5e3f
00000040: cf02 3abe

decoder.fc.bias f4 [17]
0.1619392 0.5012643 0.029258525 0.00041495755 0.022030186 0.04498619 0.09566055 0.031958573
0.00034484494 8.045494e-05 4.9931426e-05 8.441938e-06 0.0066892263 0.0008262385 2.1412445e-05 0.002238213
4.9428863e-06
00000000: 64d3 253e db52 003f 93af ef3c a98e d939
00000010: a678 b43c 7043 383d aee9 c33d fee6 023d
00000020: 4ecc b439 ebb9 a838 766d 5138 d9a1 0d37
00000030: 4c31 db3b ed97 583a e09e b337 fcae 123b
00000040: 12db a536

decoder.edge_weight_predictor.predictor.0.weight f4 [128, 2]
-0.19694923 0.3771376 -0.3131182 0.61225164 0.2532997 0.46079102 -0.20827518 0.26798135
0.35348505 -0.25449976 0.19644208 0.48698786 -0.29042542 -0.39651632 -0.5836879 -0.46141744
-0.18696965 -0.12341504 0.07981309 -0.2207483 0.50327927 -0.26092955 -0.58177936 -0.47582397
0.4610261 -0.31532723 -0.44828817 -0.46887854 -0.60134274 -0.40838486 0.25713637 -0.16609068
-0.19265153 0.516344 -0.45586675 -0.4638134 0.06891863 -0.5143224 0.21110433 -0.3332785
0.075319245 -0.18118142 0.07637069 0.17135589 0.66120875 -0.6035074 -0.3974779 -0.7883761
0.6147288 -0.4498025 0.37506154 -0.23599146 0.34264156 -0.34104723 0.24727553 -0.053006627
0.5169414 0.11210798 0.18324578 -0.23535861 0.38998815 0.1065302 0.14730594 -0.47197485
-0.17597452 0.52444106 0.07233914 -0.06719267 -0.7181174 -0.48310822 0.63223124 -0.3099936
-0.20345116 0.6109977 0.29869303 0.18386318 -0.1596671 0.31123582 -0.15175614 -0.026794873
0.018798057 0.46074376 0.10963861 0.1446448 -0.54235166 0.45746917 0.3325426 0.26363286
-0.3648909 -0.09594718 -0.64944285 0.05292564 0.13033119 0.26751164 0.3837088 0.18826093
0.18196557 -0.685463 -0.10876684 -0.57217497 0.49796888 -0.027287856 -0.021240454 -0.29994178
-0.4641392 -0.63227177 0.41869783 0.42869914 -0.4112327 0.104600474 -0.13528681 -0.59568846
0.49139732 -0.53769803 -0.005868216 0.5485761 0.51435155 -0.2812059 0.25379646 0.019799998
-0.29700893 0.1589551 0.14257966 -0.42086172 -0.1189281 -0.13408801 -0.5619095 -0.2989147
0.13502249 -0.6307348 -0.6003817 -0.29429275 -0.17706008 -0.6097821 0.25621882 -0.5610287
-0.25744072 -0.7473629 0.38802063 0.37182721 -0.32081607 0.4113688 -0.5363739 -0.47272044
-0.20115961 0.20783696 -0.15883072 -0.25338528 -0.6364832 0.072476886 -0.35924953 0.46713054
-0.03596411 -0.6425754 0.07744414 -0.16420704 0.30177638 0.10235262 0.332324 0.29595703
-0.39157462 -0.4325705 -0.14823645 0.19224381 -0.53958374 0.4934941 0.12592426 -0.07503449
-0.49755538 -0.19179475 0.26111737 -0.3297737 -0.039178018 -0.37558237 -0.6520566 -0.47260496
0.11960289 -0.4065479 -0.70078486 -0.50091386 0.5498515 -0.56243646 0.6085885 -0.0071966285
-0.63212335 -0.5940402 0.56640226 -0.34250653 -0.8302841 -0.94512475 0.5601057 -0.3556783
-0.4332759 0.5652038 -0.13057084 0.11360171 0.23110309 -0.21205118 0.41186106 0.31297284
0.19993934 -0.46900257 0.31968206 -0.09875952 0.5959833 -0.24992466 -0.37600756 -0.62527597
0.61151505 0.29287004 -0.24120663 -0.25116986 0.5416578 -0.21537937 -0.55233383 -0.09186376
-0.15902622 0.22730914 -0.35490215 -0.24079287 -0.28463387 0.21909697 0.58688694 0.29053402
0.5658612 -0.17354502 -0.3498879 0.51818514 -0.40050372 -0.6671803 -0.46258962 -0.18363707
0.07812031 0.51619303 0.11990132 0.61209655 0.61286205 0.0855075 -0.3795249 0.4619067
-0.01928962 0.07046099 -0.33448997 0.49905178 -0.45873204 -0.20775592 0.04097427 0.24582714
0.34515843 -0.21023612 -0.17434 -0.09949626 0.0016411374 -0.030890979 -0.1607932 0.32661292
00000000: 0fad 49be 2e18 c13e 0751 a0be 86bc 1c3f
00000010: 80b0 813e cdec eb3e 1746 55be da34 893e
00000020: fefb b43e cb4d 82be 1d28 493e 7956 f93e
00000030: a4b2 94be 3004 cbbe 926c 15bf e83e ecbe
00000040: f974 3fbe 06c1 fcbd 0c75 a33d d80b 62be
00000050: e9d6 003f 8f98 85be 7eef 14bf 339f f3be
00000060: 9d0b ec3e 9272 a1be 0786 e5be d910 f0be
00000070: 99f1 19bf d217 d1be 61a7 833e ad13 2abe
00000080: 7146 45be 1f2f 043f 5e67 e9be f378 edbe
00000090: 3625 8d3d a2aa 03bf bc2b 583e 7ba3 aabe
000000a0: fa40 9a3d 9f87 39be 3c68 9c3d eb77 2f3e
000000b0: fa44 293f 767f 1abf 3982 cbbe 04d3 49bf
000000c0: de5e 1d3f 834c e6be 1108 c03e bfa7 71be
000000d0: b76e af3e be9d aebe cc35 7d3e 7a1d 59bd
000000e0: 4656 043f de98 e53d c8a4 3b3e d901 71be
000000f0: 87ac c73e 812c da3d 5ed7 163e b0a6 f1be
00000100: aa32 34be c541 063f 8b26 943d 509c 89bd
00000110: 8bd6 37bf f659 f7be e8d9 213f 7bb7 9ebe
00000120: 8055 50be 586a 1c3f 4bee 983e a146 3c3e
00000130: c67f 23be 4d5a 9f3e f665 1bbe ec80 dbbc
00000140: 62fe 993c 9be6 eb3e 358a e03d c41d 143e
00000150: 8fd7 0abf 6639 ea3e 0643 aa3e e3fa 863e
00000160: fbd2 babe f57f c4bd e341 26bf 8ec8 583d
00000170: 8a75 053e 49f7 883e 7b75 c43e 79c7 403e
00000180: 2f55 3a3e 817a 2fbf 26c1 debd 0f7a 12bf
00000190: c7f5 fe3e c88a dfbc 7600 aebc f891 99be
000001a0: a7a3 edbe 90dc 21bf 905f d63e 747e db3e
000001b0: 188d d2be c638 d63d a088 0abe 0a7f 18bf
000001c0: 6e98 fb3e 94a6 09bf 2a4a c0bb 7c6f 0c3f
000001d0: 8bac 033f 38fa 8fbe 9cf1 813e 9b33 a23c
000001e0: 8e11 98be 20c5 223e 6700 123e 307b d7be
000001f0: 9390 f3bd 5e4e 09be 4dd9 0fbf 590b 99be
00000200: 5643 0a3e d677 21bf 9db2 19bf 8aad 96be
00000210: 3d4f 35be ae1a 1cbf 1d2f 833e 949f 0fbf
00000220: 45cf 83be 2d53 3fbf a4aa c63e 2360 be3e
00000230: 0142 a4be ee9e d23e cd4f 09bf 6a08 f2be
00000240: c9fc 4dbe 36d3 543e 85a4 22be b7bb 81be
00000250: 90f0 22bf c36e 943d 8eef b7be bc2b ef3e
00000260: 1a4f 13bd d27f 24bf 099b 9e3d e425 28be
00000270: 6f82 9a3e 409e d13d 5f26 aa3e ae87 973e
00000280: 787c c8be e179 ddbe 4ccb 17be 90db 443e
00000290: 2922 0abf 42ab fc3e 4af2 003e afab 99bd
000002a0: 94bf febe d865 44be 2db1 853e 19d8 a8be
000002b0: 2179 20bd 554c c0be 2eed 26bf 47f9 f1be
000002c0: 5cf2 f43d 0c27 d0be a366 33bf e43b 00bf
000002d0: 11c3 0c3f d6fb 0fbf 75cc 1b3f b2d1 ebbb
000002e0: d6d2 21bf 0513 18bf bdff 103f 045d afbe
000002f0: 808d 54bf b2f3 71bf 1663 0f3f 771b b6be
00000300: 57d6 ddbe 32b1 103f 5db4 05be 03a8 e83d
00000310: 4aa6 6c3e f223 59be 74df d23e fa3d a03e
00000320: e6bc 4c3e 1b21 f0be 5ead a33e 6e42 cabd
00000330: 5d92 183f 40ec 7fbe 1084 c0be 1612 20bf
00000340: 408c 1c3f 10f3 953e dffe 76be 5699 80be
00000350: 16aa 0a3f 698c 5cbe c065 0dbf 1123 bcbd
00000360: c5d7 22be bac3 683e bcb5 b5be 6892 76be
00000370: 88bb 91be f55a 603e 393e 163f e0c0 943e
00000380: 48dc 103f c9b5 31be 8224 b3be c8a7 043f
00000390: d30e cdbe 54cc 2abf 8cd8 ecbe 5b0b 3cbe
000003a0: 8bfd 9f3d 3a25 043f d38e f53d 5cb2 1c3f
000003b0: 87e4 1c3f 8e1e af3d 1651 c2be 097f ec3e
000003c0: 4405 9ebc da4d 903d 4542 abbe b783 ff3e
000003d0: edde eabe f8bd 54be a3d4 273d 1cba 7b3e
000003e0: 9bb8 b03e 2348 57be 2f86 32be b2c4 cbbd
000003f0: 6f1b d73a 140f fdbc f9a6 24be cf39 a73e

decoder.edge_weight_predictor.predictor.0.bias f4 [128]
-0.5875221 0.29423243 -0.66012216 -0.34669718 0.5063183 -0.1473469 -0.41434383 -0.5836691
0.091077596 -0.12184798 -0.3814174 0.5642285 -0.19801618 0.2849648 -0.1453988 0.16294985
-0.61838293 0.16231555 0.22055098 0.5399079 0.33029234 -0.2241011 -0.40446296 -0.013642225
-0.31988797 -0.6418277 -0.48863345 -0.1798206 -0.5914638 0.07905193 -0.6011081 -0.5984426
-0.24525502 0.5403653 -0.16851129 0.20398624 0.5277236 0.0030262223 -0.1875172 -0.33957374
0.49994677 0.6337829 -0.41829097 0.44506934 -0.27952173 -0.5146357 -0.63724697 -0.5988944
0.25958094 -0.25084862 -0.020725539 -0.015437364 -0.34360334 0.37071487 0.50834566 -0.25514635
-0.48548084 0.24087444 -0.21387132 -0.25445965 -0.29499415 0.115996584 -0.5824222 0.41965866
0.15075229 -0.5283554 -0.059438255 0.0070444806 -0.2656056 0.5456802 0.38964757 0.32566702
0.58532655 -0.65736306 0.40774834 -0.097213164 -0.5138212 -0.37512624 -0.63994753 0.025959074
-0.1329072 -0.27261907 -0.17539981 -0.3445154 -0.18442129 0.47326955 -0.26188698 -0.12828128
-0.44414404 -0.17256011 0.04175175 0.2033105 0.6700367 0.50416625 -0.2830984 0.18547751
0.46092963 -0.18297425 0.068283014 0.41150996 -0.303519 -0.54406726 -0.086156756 0.481584
0.1108413 -0.617909 0.17906497 -0.019789204 0.22667132 -0.604811 -0.3735604 0.3512301
0.07046685 -0.418737 0.016777517 0.60074306 0.44025815 -0.0109458985 -0.1366421 -0.15061857
0.015038334 -0.2576987 0.23974264 0.17327574 0.6492708 0.15452093 0.014689553 0.031022072
00000000: d967 16bf a2a5 963e c4fd 28bf 4b82 b1be
00000010: 139e 013f 1be2 16be e024 d4be 576b 15bf
00000020: e486 ba3d 6f8b f9bd 2449 c3be 4771 103f
00000030: c1c4 4abe e8e6 913e 6ce3 14be 53dc 263e
00000040: 584e 1ebf 0c36 263e 1ed8 613e 6737 0a3f
00000050: 141c a93e c27a 65be c515 cfbe a483 5fbc
00000060: 5bc8 a3be d24e 24bf 2a2e fabe e422 38be
00000070: 2c6a 17bf fae5 a13d 38e2 19bf 8933 19bf
00000080: 2224 7bbe 6155 0a3f 398e 2cbe c5e1 503e
00000090: e518 073f 9653 463b 8204 40be 9cdc adbe
000000a0: 06f9 ff3e 993f 223f 3c2a d6be 21e0 e33e
000000b0: 791d 8fbe 2abf 03bf 9e22 23bf 2551 19bf
000000c0: cbe7 843e 3b6f 80be 9bc8 a9bc ffec 7cbc
000000d0: c7ec afbe 57ce bd3e f122 023f 8ba2 82be
000000e0: f290 f8be caa7 763e 1501 5bbe 8948 82be
000000f0: 7909 97be 9e8f ed3d 9f19 15bf 80dd d63e
00000100: cf5e 1a3e 4d42 07bf 8775 73bd 63d5 e63b
00000110: 75fd 87be b3b1 0b3f e37f c73e d4bd a63e
00000120: f6d7 153f f248 28bf 64c4 d03e b217 c7bd
00000130: c989 03bf 8c10 c0be 9ad3 23bf 20a8 d43c
00000140: d318 08be ba94 8bbe 029c 33be 5364 b0be
00000150: efd8 3cbe 6350 f23e 0d16 86be 2b5c 03be
00000160: d966 e3be 99b3 30be e203 2b3d a130 503e
00000170: 8687 2b3f 0a11 013f 46f2 90be d1ed 3d3e
00000180: f8fe eb3e 9a5d 3bbe f7d7 8b3d 6fb1 d23e
00000190: d866 9bbe fe47 0bbf f472 b0bd 2e92 f63e
000001a0: c300 e33d 492f 1ebf cf5c 373e f81c a2bc
000001b0: 871c 683e e5d4 1abf 4f43 bfbe 6fd4 b33e
000001c0: ed50 903d b264 d6be 0171 893c 4cca 193f
000001d0: 8469 e13e 6d56 33bc e8eb 0bbe c13b 1abe
000001e0: 5863 763c 16f1 83be 187f 753e 326f 313e
000001f0: 9c36 263f bc3a 1e3e 73ac 703c 0022 fe3c

decoder.edge_weight_predictor.predictor.2.weight f4 [64, 128]
-0.0061069527 0.022967167 0.067424 0.067196056 0.09418362 -0.026232561 -0.12702115 -0.08166021
0.03904938 -0.012628488 -0.010176276 0.06908255 -0.018128727 0.11215359 0.090441845 0.02435889
-0.022352701 -0.04271562 0.1284046 -0.04921008 -0.048037138 -0.052790508 -0.04104672 0.12651834
0.06188251 -0.013649563 -0.06607129 0.018672794 0.06422254 -0.002039722 0.019972637 0.054416303
-0.079228036 0.0912893 0.06515164 0.030865645 0.08895635 -0.048721008 0.031762507 -0.15393028
0.042595334 0.08700377 -0.011271848 0.008662549 -0.025113972 0.039259046 -0.07016237 -0.053192034
0.10812839 0.06267996 0.07038323 -0.00058104197 -0.22669879 -0.049838994 0.06336886 0.04742595
-0.05384005 0.034405537 0.01765158 0.0045857066 -0.07360076 0.04290242 0.072206594 0.14234138
0.113933235 -0.080584124 0.16060282 0.075007156 0.031729102 -0.030935181 0.0042907344 0.048237555
0.06508191 0.08279084 0.071350105 0.024496913 -0.03743705 -0.07501733 0.06421239 -0.06087537
-0.23461732 -0.09960022 0.13178693 -0.07550402 0.046027143 -0.011269923 -0.015286029 0.09475148
-0.0095169 0.02318835 -0.044311896 0.043304123 0.08116857 0.03588657 -0.32226944 -0.013207542
-0.05360026 0.073528595 -0.06306475 -0.038010888 -0.06208813 -0.037614886 -0.013425526 -0.0006543963
0.052299768 0.046483014 -0.042545784 0.086131364 0.07139363 0.046506003 0.21066941 -0.030192103
0.0695181 -0.08226896 0.014482472 0.045838647 -0.040726956 0.06916785 -0.014413469 -0.072646186
-0.09840191 0.06504049 0.0023511762 0.015214753 0.062455602 -0.013550815 -0.019356 0.039344896
-0.031182956 -0.09586411 -0.033089865 -0.021616463 -0.012217753 -0.0378922 -0.014971253 -0.059544086
0.011834733 -0.00855146 0.007854716 0.023051128 0.047086988 0.014420156 0.028812235 0.020358464
-0.08281533 -0.0035903747 -0.069278635 -0.01434314 -0.055323973 -0.08150829 0.08251946 -0.019813541
0.0301359 -0.04147209 -0.0484056 0.033568982 0.060031224 -0.09093045 0.027367666 0.049408432
-0.05128511 -0.03134287 0.059718072 -0.036741503 -0.07440699 -0.07293259 -0.07129083 0.075131215
-0.017221803 -0.07738657 0.005305285 -0.12416888 -0.0647849 -0.012464034 -0.08199296 -0.054839462
-0.100709125 -0.020053148 -0.08012359 0.07699122 0.06272631 -0.077386655 0.020578304 -0.045107845
-0.08155283 -0.08817321 0.04785668 -0.006602298 -0.042554367 0.001290914 -0.068367735 0.053286303
0.03640696 0.075371504 0.031469833 -0.024668908 0.06776546 -0.036500763 -0.013335289 0.06460981
-0.10127939 0.053358562 -0.09518312 0.029532414 0.061127733 -0.07641842 -0.07306857 -0.12285649
0.04778092 -0.07487514 -0.017798375 0.002704995 0.030491788 -0.081594445 -0.054732192 -0.013184132
0.08000873 -0.051386338 -0.044152416 -0.044819556 -0.036999065 -0.0517632 0.08105853 -0.07125793
-0.11189523 0.0643163 -0.12967384 -0.020146243 -0.043767158 0.009067137 -0.039192814 0.06750033
0.018041821 -0.04337154 -0.065522924 0.013281536 -0.10332441 -0.06509019 -0.03963911 -0.05404299
-0.09527972 0.025846867 0.02843908 -0.039272293 0.006400843 -0.040002555 -0.012610498 -0.032551337
0.02046799 -0.02684991 0.040834185 -0.08841533 -0.033550024 0.020408977 -0.02745006 -0.013608991
00000000: d51c c8bb a425 bc3c 9815 8a3d 169e 893d
00000010: 57e3 c03d abe5 d6bc d511 02be 783d a7bd
00000020: 3ef2 1f3d b8e7 4ebc 65ba 26bc 277b 8d3d
00000030: b282 94bc c8b0 e53d 9339 b93d 4b8c c73c
00000040: 031d b7bc 93f6 2ebd 7f7c 033e 8290 49bd
00000050: 97c2 44bd dc3a 58bd 9b20 28bd 068e 013e
00000060: 8478 7d3d 6ba2 5fbc 6250 87bd b0f7 983c
00000070: 1b87 833d dbac 05bb a89d a33c a1e3 5e3d
00000080: 4f42 a2bd e2f5 ba3d 396e 853d f3d9 fc3c
00000090: bf2e b63d ae8f 47bd 6719 023d e69f 1dbe
000000a0: 7278 2e3d 082f b23d 8fad 38bc 5ded 0d3c
000000b0: d1bb cdbc 18ce 203d 4ab1 8fbd e4df 59bd
000000c0: 6b72 dd3d 5a5e 803d 1525 903d 1151 18ba
000000d0: ba23 68be f923 4cbd 88c7 813d b741 423d
000000e0: 6287 5cbd d2ec 0c3d 0c9a 903c b243 963b
000000f0: ffbb 96bd 73ba 2f3d 0de1 933d f0c1 113e
00000100: d455 e93d 4a09 a5bd 1175 243e 5a9d 993d
00000110: 60f6 013d c76b fdbc 4a99 8c3b be94 453d
00000120: aa49 853d 3e8e a93d 0120 923d c0ad c83c
00000130: 9857 19bd b0a2 99bd c981 833d 7458 79bd
00000140: 863f 70be 33fb cbbd 27f3 063e daa1 9abd
00000150: f586 3c3d 7ca5 38bc 4172 7abc 100d c23d
00000160: c6ec 1bbc 7ff5 bd3c 6480 35bd aa5f 313d
00000170: b53b a63d ccfd 123d 8000 a5be 7264 58bc
00000180: f28b 5bbd 2996 963d 1728 81bd 4eb1 1bbd
00000190: 1f50 7ebd 1112 1abd bdf6 5bbc cb8b 2bba
000001a0: 4838 563d f964 3e3d 7d44 2ebd a465 b03d
000001b0: d336 923d 147d 3e3d b9b9 573e 6e55 f7bc
000001c0: 815f 8e3d a17c a8bd e447 6d3c 4ec1 3b3d
000001d0: 4fd1 26bd e0a7 8d3d 7826 6cbc 86c7 94bd
000001e0: f186 c9bd f333 853d 3116 1a3b 4d47 793c
000001f0: 72d1 7f3d 3d04 5ebc 7990 9ebc 1d28 213d
00000200: 6673 ffbc 6754 c4bd 3d89 07bd 0215 b1bc
00000210: f82c 48bc da34 1bbd fd49 75bc 80e4 73bd
00000220: 78e6 413c 6c1b 0cbc 11b1 003c b8d5 bc3c
00000230: 49de 403d 8542 6c3c a307 ec3c cbc6 a63c
00000240: 159b a9bd 7e4c 6bbb f5e1 8dbd 7dff 6abc
00000250: 649b 62bd d1ed a6bd f6ff a83d 0250 a2bc
00000260: 90df f63c a3de 29bd f344 46bd a17f 093d
00000270: 4de3 753d be39 babd 2832 e03c 7f60 4a3d
00000280: 5610 52bd 6261 00bd f09a 743d 427e 16bd
00000290: b162 98bd af5d 95bd ed00 92bd 65de 993d
000002a0: bd14 8dbc da7c 9ebd f5d7 ad3b 414c febd
000002b0: f2ad 84bd f335 4cbc edeb a7bd 589f 60bd
000002c0: 9640 cebd 8046 a4bc d617 a4bd 93ad 9d3d
000002d0: a776 803d e57c 9ebd d593 a83c 01c3 38bd
000002e0: 2c05 a7bd 2894 b4bd 5e05 443d 1758 d8bb
000002f0: 7d4d 2ebd e333 a93a 6204 8cbd bd42 5a3d
00000300: 771f 153d 605c 9a3d 83e6 003d 7316 cabc
00000310: 9ec8 8a3d d381 15bd 427c 5abc 2652 843d
00000320: 926b cfbd 828e 5a3d 5eef c2bd f6ed f13c
00000330: 1361 7a3d 4381 9cbd f9a4 95bd 2f9c fbbd
00000340: edb5 433d 2358 99bd e6cd 91bc 4946 313b
00000350: eac9 f93c fd1a a7bd dd2e 60bd 4202 58bc
00000360: 9edb a33d 7b7a 52bd 2ad9 34bd b694 37bd
00000370: 558c 17bd a605 54bd 0402 a63d adef 91bd
00000380: 5429 e5bd 44b8 833d 38c9 04be bc09 a5bc
00000390: 3145 33bd 548e 143c a588 20bd 9d3d 8a3d
000003a0: 71cc 933c 5ba6 31bd e230 86bd cd9a 593c
000003b0: c09b d3bd 014e 85bd 9f5c 22bd 2f5c 5dbd
000003c0: 0422 c3bd cfbc d33c 13f9 e83c fcdb 20bd
000003d0: 2abe d13b b8d9 23bd 439c 4ebc 8d54 05bd
000003e0: 7cac a73c 58f4 dbbc bf41 273d 1913 b5bd
000003f0: c06b 09bd ba30 a73c f3de e0bc 3ff8 5ebc

decoder.edge_weight_predictor.predictor.2.bias f4 [64]
0.030401394 -0.037100334 -0.05131712 -0.19789317 -0.016178053 -0.055031504 0.08438776 -0.22490193
-0.01089118 0.017102908 -0.12396817 -0.001703386 -0.039563254 -0.081562676 0.0012763946 0.06676089
0.018256838 -0.18881403 -0.07461874 -0.08005015 -0.0037080368 -0.09041654 -0.00787254 0.012720328
-0.13359262 0.11897672 -0.2323937 -0.09569251 0.10077224 -0.25898245 0.12753655 0.0543997
-0.06200251 -0.1941879 0.046601586 -0.13098285 0.023980109 0.026384046 -0.050786987 -0.14464463
-0.17458054 -0.19949976 -0.04487829 -0.0602507 -0.012179425 0.04608119 -0.17675012 -0.104522035
-0.07092442 0.009474495 -0.08206307 -0.04215611 -0.074518695 7.115781e-05 0.044367626 -0.04463663
-0.101055995 -0.018461285 -0.053639483 0.0414724 -0.05831016 0.011332947 0.10634594 0.09590184
00000000: 580c f93c 85f6 17bd e731 52bd 82a4 4abe
00000010: d687 84bc b768 61bd 7dd3 ac3d b14c 66be
00000020: eb70 32bc 661b 8c3c 06e3 fdbd 2644 dfba
00000030: 140d 22bd 550a a7bd b24c a73a efb9 883d
00000040: 5d8f 953c 7758 41be b6d1 98bd 55f1 a3bd
00000050: 8902 73bb 4f2c b9bd d3fb 00bc ec68 503c
00000060: 81cc 08be 11aa f33d 9df8 6dbe 6ffa c3bd
00000070: ad61 ce3d 5999 84be f198 023e 38d2 5e3d
00000080: 58f6 7dbd 31d9 46be 4ee1 3e3d 5e20 06be
00000090: ef71 c43c 5b23 d83c 0406 50bd b91d 14be
000000a0: 3ec5 32be aa49 4cbe 4cd2 37bd 70c9 76bd
000000b0: 368c 47bc a1bf 3c3d fcfd 34be a60f d6bd
000000c0: d340 91bd ea3a 1b3c af10 a8bd e3ab 2cbd
000000d0: 429d 98bd 8f3a 9538 d4ba 353d e6d4 36bd
000000e0: 72f6 cebd 1f3c 97bc 13b5 5bbd f7de 293d
000000f0: a2d6 6ebd d3ad 393c e6cb d93d 2f68 c43d

decoder.edge_weight_predictor.predictor.4.weight f4 [1, 64]
0.056220625 -0.04878036 0.081871934 0.039630283 0.11323252 -0.050342977 0.02581172 0.069193445
-0.0036571075 -0.10565705 0.054220468 0.010896055 -0.015775323 0.036334775 0.0053022825 0.116253495
0.11338616 -0.081314676 0.094496265 -0.0953394 0.08512993 0.003005385 0.018345503 0.12129066
0.060922664 0.12368897 0.05035487 -0.02531654 0.061934486 0.07530062 0.07347261 0.1133713
0.016586754 -0.14596659 0.028359553 0.007025116 0.04159218 0.030070433 0.07586225 0.16049989
-0.15522347 -0.114320636 0.04746686 -0.10754355 -0.018992841 -0.063184194 0.04848472 0.053465575
-0.096410885 0.05637664 -0.007616443 0.00051159255 -0.022748446 0.030437345 0.13107601 -0.027547473
-0.028081536 0.053633098 0.01273267 -0.08915001 0.05608589 0.08286719 0.11117386 0.07259046
00000000: 9947 663d eacd 47bd 79ac a73d 5d53 223d
00000010: 74e6 e73d 7034 4ebd 1a73 d33c 4bb5 8d3d
00000020: 15ac 6fbb b962 d8bd 4816 5e3d 5e85 323c
00000030: 403b 81bc c6d3 143d c5be ad3b 5016 ee3d
00000040: 0137 e83d 4f88 a6bd 4287 c13d 4e41 c3bd
00000050: 9a58 ae3d fef5 443b 4f49 963c 3d67 f83d
00000060: 0b8a 793d a550 fd3d e840 4e3d a264 cfbc
00000070: 04af 7d3d 3637 9a3d cf78 963d 362f e83d
00000080: f2e0 873c 4478 15be 4b52 e83c f232 e63b
00000090: 905c 2a3d 4556 f63c ab5d 9b3d 155a 243e
000000a0: e7f2 1ebe f020 eabd 9c6c 423d cb3f dcbd
000000b0: e096 9bbc b766 81bd ea97 463d b8fe 5a3d
000000c0: 1273 c5bd 31eb 663d 5b93 f9bb 651c 063a
000000d0: f35a babc bd57 f93c ca38 063e 3dab e1bc
000000e0: 400b e6bc 61ae 5b3d b09c 503c 4894 b6bd
000000f0: 51ba 653d 46b6 a93d 1faf e33d 4faa 943d
